project/starter_code/irt_output/theta.npy (npy, 4464 bytes, 1 tensors)

array f8 [542, 1]
-0.16621835690843664 0.49994633301414937 0.2923083326561591 0.2508040021345076 0.2465691046267994 -0.2042956633874446 0.1387509901919803 0.8995759736946253
-0.11113346703590331 0.8382546782384266 0.3286362759585467 0.9119441071253853 1.773794812023531 -0.4167475258091054 -0.4109938162352345 0.4646884937883787
-0.1869276018721844 -0.9134783015311565 0.6419127515560769 0.4080469368747117 -0.036684865943491254 -0.01860922092236684 0.5792098570443868 0.30792384190118294
0.7183670014646055 1.2085449534873898 0.8912344427211861 1.2350005821982473 0.6591833578975371 0.03450959312894033 -0.8863505745413085 0.83008074044021
-0.11577401162538446 -0.07937907716792149 0.17811396223058276 0.9350519743905398 0.8988138186970948 1.7415548470378377 0.2217692323289471 2.0289629290061897
-0.6635189529005506 0.39105193010788075 -0.8242331210067513 0.6502589731237373 1.2343066552870035 0.23492368469904532 1.0403667036430801 0.4750166949457405
0.15210201416697347 -1.2764639219613758 0.49454670620073604 0.20477741447227377 -0.4965996019235575 0.5662261099118031 0.707756660545593 -0.08228330359001049
-0.46863205971391064 1.9675086419726973 -0.06153724048494241 1.7110065813182094 0.7178474402411461 1.3318236860768056 -0.9779233004201582 1.5352602991709214
-0.995867843295071 0.7989897187141856 2.875156999783558 -0.4906095222794758 0.14048159016765707 0.04982654718585728 0.2950344183560818 0.8534366466483727
0.542087395467447 1.420851694175646 0.009987905503575319 1.0124784536245082 0.32832224123197473 0.8030651637780047 0.5306551273573812 -0.06820854407811303
0.7359016788867201 -1.0004547915072477 -0.608788285799716 0.18645373171835494 0.2689738619600461 0.8029967316054326 0.7470255564886875 0.9200467505464704
0.32143979153443664 0.307336187386689 0.2477227691733817 0.35124294501128267 0.6972865234181992 -0.9744030138761631 1.2845971311110231 -0.4040395020895969
0.6748875398768448 0.582777014982085 -0.725205152764909 0.9198989941601081 -0.2642595115880433 1.799317362671359 -0.940584770408556 0.12269541042341967
0.2961339659577797 -0.2908335865058512 2.0975273655644924 0.482271040719942 -0.2429391936077445 -0.14377454456649197 0.4016271220982093 0.7751721740746175
0.48741341664816074 -0.16616594972538798 2.054317418028181 -0.8842154251845807 1.6498604462535336 -0.3355808743177338 0.8117370482889975 1.909939696713877
-0.8229282114698789 0.9592455355104906 0.6580638286200879 2.152663562064637 -0.9487779807840417 -0.08866330572574542 0.4589589011071816 0.2551312184729616
-0.49275855342552016 0.4639738273458378 1.0520726235409368 0.1355229620481013 0.7778157976571864 -0.4039647686466708 0.20948217682559506 -0.27439514015819244
0.6121956852717015 0.9787960391910051 2.278516006085059 0.14924325753243148 -0.06955977047892913 1.502567099164386 -0.8660594236070893 1.7729986705087837
0.7195048629039699 -0.1031058374985588 1.5008661636780614 -0.48155994928812507 1.5768179859530835 -0.9721092326215353 0.3584993169192338 0.5087739667161973
0.2539352376869204 1.3825906582525045 -0.0577723290731402 1.4004680858139227 1.163932742619677 2.767434881260432 0.8197537789458695 -0.7399320212286139
-0.4987575821037565 -0.439603066401071 1.9760418701454745 1.4187384240617447 -0.4288168805960572 -1.2051714006636889 -0.7444853781666156 -0.9333813625451854
2.2377045604907986 -0.7907738769084499 -0.31436997937023153 0.19578365566419337 -0.06595227675313045 -0.8989438167340666 -0.7042992595709131 0.7964985057991316
-0.23841230646475162 0.8869176878114766 1.1408534293487185 -0.58570911134947 1.848345643613984 0.19570073575138738 0.5690021745074215 0.8845014124347967
0.24803710834960205 -1.138636033988639 -0.4674649648741319 -0.7202297242808381 -1.2563236113926026 -1.0683590976288333 1.985091358851572 0.0882178220860463
1.027787721276174 -0.9788407136791483 -1.2431445255092386 -0.16947580441235088 1.7056727077720435 -0.9412719073807522 0.30378064421733597 -0.5657504028512707
0.35090377946742274 1.2185384357647955 -0.5076561677736027 -0.7555226095469343 0.1719336873267019 1.154938461516711 -0.37376412061643094 0.4782581850907058
0.2976615742365723 0.2584320481841736 -1.2356157635607787 0.6094215410315923 -0.8932426623594136 -0.26270204286358684 -0.17766355544923998 0.6998213354417779
0.14200568506532557 -0.22421499792597935 -0.47503139341531964 -0.7779795740863468 0.39773911245196664 -0.5925690711313379 1.1349371988903751 0.33294013212847245
-0.5749610280528095 -0.750140613035782 0.4472564077728844 -0.591790788158289 0.37190945382129204 0.9365026633586783 0.40452484538768985 2.3441790879845885
-0.4944067998763675 0.21932656528728336 1.2443637540059507 0.5765863619534578 -0.3825300286912552 1.6694193573643417 0.21307509475588313 -0.1906470544070711
2.9946777183472473 -0.18764336010202295 -1.1697262833628082 0.7253204498137842 -1.112099052647134 -0.7085892726510243 1.583418030833997 0.28628312381528204
-0.42002943047685715 0.2406791830193615 -0.7083463100188464 1.7666810382972773 -0.1931475399365732 1.1003692204817404 2.326637454530568 1.9202043068472603
00000000: db52 75a3 a446 c5bf e441 83e7 1eff df3f
00000010: c4d0 4602 2eb5 d23f 76e9 b73a 2c0d d03f
00000020: d5bd 4990 938f cf3f 7e5a 7b3c 5c26 cabf
00000030: 0fc2 94aa 97c2 c13f 0b25 698d 53c9 ec3f
00000040: 5709 692e 3e73 bcbf f218 9879 fbd2 ea3f
00000050: 2a5b 6172 6008 d53f 3a45 7c68 a52e ed3f
00000060: dd49 37ab 7661 fc3f 5d7f 82d0 fdab dabf
00000070: 11ab e501 b94d dabf 6d82 e9ce 74bd dd3f
00000080: f15f 6160 3eed c7bf 7cd2 d5d8 363b edbf
00000090: fb32 5a9c 8c8a e43f 0008 47e6 701d da3f
000000a0: 7a8b f8d6 5bc8 a2bf a2fa 0fad 4b0e 93bf
000000b0: e5d8 301c e388 e23f ccf3 a733 06b5 d33f
000000c0: 341d 3acb dcfc e63f 3e96 af3b 3356 f33f
000000d0: 0bcd 1118 fe84 ec3f a451 71f8 8fc2 f33f
000000e0: a998 87b2 0718 e53f 632d c6cb 3dab a13f
000000f0: 6c43 4ee1 fb5c ecbf 865d 277c 0590 ea3f
00000100: 4f62 a899 5da3 bdbf 1142 6cec 2f52 b4bf
00000110: f9e3 5e35 70cc c63f c329 421e f2eb ed3f
00000120: 91e6 8f32 15c3 ec3f 177c 839d 68dd fb3f
00000130: 3951 0e28 ef62 cc3f 0d06 87ea 503b 0040
00000140: 2b7d 5f19 8c3b e5bf 3477 b6ac fe06 d93f
00000150: d420 6023 1e60 eabf 61e7 efe7 ebce e43f
00000160: d015 db55 b8bf f33f a34a 6bb3 fa11 ce3f
00000170: dfe8 7f8e 57a5 f03f 4624 766c ac66 de3f
00000180: 5d5e 402c 1478 c33f 6e91 f56e 656c f4bf
00000190: f481 5e3a a7a6 df3f ce15 0f75 2536 ca3f
000001a0: 99f8 5db2 49c8 dfbf c4cc 0638 861e e23f
000001b0: 4f39 d24b f1a5 e63f 0a0a edc1 8410 b5bf
000001c0: f003 9552 11fe ddbf f6eb 7d57 ea7a ff3f
000001d0: 68e2 bc26 cf81 afbf 220a e06f 4860 fb3f
000001e0: 144c eb31 9bf8 e63f 0ecf 7b5a 264f f53f
000001f0: 7ca1 29ce 254b efbf 9e94 7c1a 6d90 f83f
00000200: 6be4 423d 26de efbf 1ff7 f6e2 5291 e93f
00000210: a57c 2750 5200 0740 61fa 527b 2566 dfbf
00000220: 99e6 bafd 4cfb c13f 298f 457d dd82 a93f
00000230: 0429 820a d8e1 d23f 6201 d25e 5a4f eb3f
00000240: 7a68 63aa c758 e13f a135 6ffc cebb f63f
00000250: c478 f2fb 8974 843f f78c 639b 1c33 f03f
00000260: 1e02 294a 3b03 d53f 2178 dfb6 b5b2 e93f
00000270: a28c 2e76 20fb e03f 9e8e 1f7a 1d76 b1bf
00000280: 867a 7cad 818c e73f ec66 2ae2 dc01 f0bf
00000290: 6853 3692 317b e3bf 6e47 f943 b7dd c73f
000002a0: cb38 2625 de36 d13f 8149 a133 26b2 e93f
000002b0: c5a4 cc23 a2e7 e73f d06b 0ce2 0571 ed3f
000002c0: 6b80 1134 7892 d43f 8600 6d66 65ab d33f
000002d0: 6a80 0934 61b5 cf3f 418c 71b0 c37a d63f
000002e0: fdb9 c0d3 2b50 e63f 411a b73a 4f2e efbf
000002f0: 2c84 aab8 b58d f43f 9515 f17f c8db d9bf
00000300: 5af7 07c1 ad98 e53f 80ac 86fb 1ba6 e23f
00000310: d082 c06f e134 e7bf 8a4f f103 d06f ed3f
00000320: 745d fbb9 a0e9 d0bf 7cc6 bc00 01ca fc3f
00000330: 41a7 803b 4519 eebf 6e4c 2367 f768 bf3f
00000340: 0f80 c1e0 dbf3 d23f c2be a779 049d d2bf
00000350: 2984 6c6d bcc7 0040 60cd ec5a 87dd de3f
00000360: b71e bba9 a118 cfbf 4087 744b 3467 c2bf
00000370: 504c a63e 42b4 d93f 316e 0de0 35ce e83f
00000380: 94ab 080b c831 df3f cfc0 e303 ed44 c5bf
00000390: 0a46 70f8 3d6f 0040 152b b925 7e4b ecbf
000003a0: 5ef7 3911 d465 fa3f 6de5 1634 287a d5bf
000003b0: 474a 6bf9 bff9 e93f ff7d 6bed 1c8f fe3f
000003c0: 3f01 678b 6d55 eabf 0340 7bb1 23b2 ee3f
000003d0: 8c52 d3df db0e e53f 2cde 72ac a738 0140
000003e0: 6c3c d4a3 635c eebf f783 726e a3b2 b6bf
000003f0: 0ea9 9d27 955f dd3f 8aeb e1e3 1154 d03f
00000400: 355c f22b 5b89 dfbf e89e a947 bfb1 dd3f
00000410: ff00 721a 4ad5 f03f 3744 ed00 d158 c13f
00000420: 1cfe a7f4 dde3 e83f cdb6 840b 8fda d9bf
00000430: f2c8 47dd 4fd0 ca3f 1a4a 4aa2 b08f d1bf
00000440: 09d1 df67 1b97 e33f 50f3 3812 4c52 ef3f
00000450: 0762 8c99 663a 0240 cb09 202f 671a c33f
00000460: 2703 534b abce b1bf 584e 6fcc 830a f83f
00000470: 341f 9940 c2b6 ebbf bffc 9ada 335e fc3f
00000480: 5589 ef0f 2f06 e73f 853f 15e8 2465 babf
00000490: 5fb9 0a3d 8c03 f83f ec60 50d2 e0d1 debf
000004a0: fb9b 167f a53a f93f 0af9 47d2 841b efbf
000004b0: db9c 731e a7f1 d63f b745 8357 e047 e03f
000004c0: 34b5 4a95 7940 d03f a431 cf61 171f f63f
000004d0: fc3c f7af 5594 adbf ae99 3a39 5168 f63f
000004e0: b9b8 84f0 779f f23f e995 26e6 b423 0640
000004f0: 9c09 eb46 6c3b ea3f 1715 0eeb 85ad e7bf
00000500: 7d21 f1eb a4eb dfbf 9b7d 5ae6 7422 dcbf
00000510: e9d2 7c14 de9d ff3f c6c7 ce0f 27b3 f63f
00000520: d77f 885b bc71 dbbf 08cd 7ece 6148 f3bf
00000530: 026d f2ff d2d2 e7bf ce7a 5a97 42de edbf
00000540: 2258 0ba6 d1e6 0140 234b 7b04 054e e9bf
00000550: 5551 0f43 a31e d4bf f6a2 1557 700f c93f
00000560: 225e c097 3fe2 b0bf 340e bad2 25c4 ecbf
00000570: e187 ce99 9e89 e6bf 5c0b 376f ea7c e93f
00000580: df71 9d61 4b84 cebf 889d ec33 a161 ec3f
00000590: a950 8986 ef40 f23f e3e2 c608 21be e2bf
000005a0: 0a6b b0e1 d292 fd3f 017c edc1 b80c c93f
000005b0: a397 5b0c 4435 e23f 588b f5e7 d54d ec3f
000005c0: 5929 4712 aebf cf3f 1e74 006b da37 f2bf
000005d0: 7a40 0a2c f2ea ddbf e395 ec34 1f0c e7bf
000005e0: 41fb 81c9 e619 f4bf d532 8bb5 ff17 f1bf
000005f0: 6b6f 1d28 efc2 ff3f adae c874 7195 b63f
00000600: d4c8 a189 d171 f03f 05d9 a7c2 a952 efbf
00000610: c737 9483 ebe3 f3bf 1409 b516 62b1 c5bf
00000620: 98f8 1877 6f4a fb3f ff00 5b43 e61e eebf
00000630: ae8f 045f 2471 d33f b53d be96 a01a e2bf
00000640: 7fbe 3620 3575 d63f f075 a828 227f f33f
00000650: f668 c625 b83e e0bf ac90 6cc0 3d2d e8bf
00000660: 500e 134e ec01 c63f 92b5 91c0 a07a f23f
00000670: 2ecf 9d58 c0eb d7bf c191 0038 c89b de3f
00000680: 19ce a721 e30c d33f d91d cc92 268a d03f
00000690: 5aa6 ee08 15c5 f3bf f1ac 869a 6180 e33f
000006a0: 8a38 c7a2 7195 ecbf 7741 ac3a 1cd0 d0bf
000006b0: 953b 2cec adbd c6bf d47e 98b6 ef64 e63f
000006c0: a2cf 9906 3e2d c23f 69b1 aeb9 13b3 ccbf
000006d0: e4b1 d212 ea66 debf 1105 756b 35e5 e8bf
000006e0: 938f 14c0 8e74 d93f 8d2a a469 53f6 e2bf
000006f0: d8f7 83e8 b328 f23f 2122 c120 e44e d53f
00000700: 6cc3 7eab 1466 e2bf 7e7b 0ce3 2601 e8bf
00000710: 13e7 1357 d99f dc3f 65d8 263c f3ef e2bf
00000720: 3e15 4f4f 5dcd d73f e9c1 f76e d4f7 ed3f
00000730: 6e03 572d bce3 d93f 27e3 36f7 e0c0 0240
00000740: a0e5 186b 5ca4 dfbf 21c5 8694 e412 cc3f
00000750: 9788 bcf7 e9e8 f33f 6d1c fd3d 6573 e23f
00000760: 68e1 bd3a 5f7b d8bf e606 7312 f1b5 fa3f
00000770: 83c8 c871 0b46 cb3f c1e8 e067 1f67 c8bf
00000780: ffe3 7297 19f5 0740 1391 7997 b204 c8bf
00000790: ca09 45e8 32b7 f2bf 2e3f 623b d335 e73f
000007a0: 2a83 5060 28cb f1bf 78a4 0a69 c3ac e6bf
000007b0: 8142 2525 ae55 f93f 17bc 8b73 7652 d23f
000007c0: de5b d01e c3e1 dabf 3fb5 f251 93ce ce3f
000007d0: 3dbe 78e1 c5aa e6bf bb33 1f56 5344 fc3f
000007e0: b84b aaff 0eb9 c8bf c9e7 77c1 1c9b f13f
000007f0: 1ddc 0619 f49c 0240 dfc1 b826 28b9 fe3f
